p1_navigation/checkpoint_dqn.pth (torch_old, 62789 bytes, 8 tensors)

fc1.weight f4 [128, 37]
00000000: d9da 313c d6bd 9c3c d96c ccbd 2b0d 35be
00000010: 0159 eabd 54d7 1c3d 5723 0bbe f0ce 813d
00000020: 52ad 09be cbf2 07be c9d3 973d b65e 8cbe
00000030: 83ef 27be aa31 47bf e38c 9cbe c138 f73c
00000040: e169 243d 5842 03be 0d91 a7be ff62 91bd
00000050: 47b9 76bc f66b 803e 3a54 2fbe 7312 71be
00000060: e58d 8f3e 35ea 1f3d e022 aa3d 690b 41bf
00000070: a0ae 23be 74f8 063d 0839 5bbe 7939 2d3e
00000080: 5309 413c ea76 17be c9e2 8b3c 639e 50be
00000090: a7ce b8bc 0e01 6c3e 6726 933c 7194 2c3a
000000a0: 5b09 883c 770d 39be 5a28 423d 56bd 49be
000000b0: bf38 abbd 551d 21bb 026f 8fbd a060 2dbc
000000c0: 413d 533d 5c7c c5bc ec66 1e3e 078d 0e3e
000000d0: 40d1 4c3e 69e8 22bc 4d86 9dbd 0ab7 7abd
000000e0: cfc7 6ebf 2aee 24be 64f1 a83a 1e6a 8cbd
000000f0: c049 cc3b 8964 8d3d f76b 51bd c6fc 993d
00000100: 735f a23d 0f8f e6bd 9161 053e 56c5 b43d
00000110: 2e57 223e ad00 003d 39c4 e9bb a3e4 21be
00000120: e338 a9bb 1a51 cfba 3d79 bbbb 2e4b 8a3e
00000130: 6ad8 553d bcb5 f33c 7050 ccbd 9a12 01bf
00000140: 5fb9 a4bb 268a 5f3e dc20 003e 3e82 49bf
00000150: 4b49 23be f074 123d b4dd d33d 2470 c9be
00000160: 802b 85bb ed24 a6be 2357 873d 8150 b83d
00000170: 8e35 b63e 1b7a 8fbd 7ac9 65be 1c66 f5bd
00000180: 61e2 373e 6ade 2ebe 7997 10bf e738 85be
00000190: bad1 953e 4928 0b3e b036 5ebd 5fcc 8dbe
000001a0: c278 8cbe 940f e4bd edee 81bc 18a5 8bbe
000001b0: cf1d 95be 6239 1fbc a7c0 0dbd 5d91 373e
000001c0: 5ff1 43be b419 023e c56d 83bd 5fc9 59bf
000001d0: c685 63be 457e e13b 70ff 4c3e b733 bd3d
000001e0: 3c9e 67bd 9d11 3e3e 789e 3cbd 43e2 9dbc
000001f0: 6408 71be 5c48 d5be e500 7bbe f8fc d03d
00000200: 3f21 2bbd 5ee0 193d c222 06be 045f 133e
00000210: a5bd 23bd e58c b9bd 79b6 dc3b 60f1 c3be
00000220: 9295 02be 89a4 843a ebf0 8e3e bd05 97bc
00000230: c150 5fbc eede bd3d 6c61 9c3e 2047 c1bc
00000240: 2af4 14be 6bbb 09be 5f40 a33c 787b 41bc
00000250: 089d 6cbe f5a3 49be 4300 28be 2597 c7be
00000260: 4e08 1f3b 64f4 babe 9eda 0abc b0fb d63c
00000270: d37b 74bd 4c26 dfbf 8c03 85bb e243 93bd
00000280: d223 b7bd 04dc 9bbe c35b d1be ce34 60be
00000290: c174 1cbe fa73 393c 1ac3 0bbe 9640 40bd
000002a0: 65ee c8be 019a 03be 3e84 643e 9723 32be
000002b0: ce84 1fbf 034e 90be 505f 95be 0cf2 563e
000002c0: 1ff3 4cbe d64b ccbf f876 8abe ff66 87be
000002d0: 32d4 3f3e dac0 7dbe ff9b c3bf 0766 253c
000002e0: 4a19 883d bab9 34be f1e9 80be a1f1 963d
000002f0: 102a 46bb cb5a 1e3e 80ea ef3d b0a9 a93e
00000300: 1616 c3be dc82 a9be 98ec 3fbf 1bff babe
00000310: 268e ea3d 2526 2c3d c773 9abe d9dd f03d
00000320: 06d3 0a3d 3fa4 b23c 14c4 05bd c1f3 03bf
00000330: 14d5 573d 35af 773d 0fe7 0b3e 0c36 1dbd
00000340: 60b7 f03c 3de3 5cbd e0c5 63bd 3e85 0c3e
00000350: 9fb6 06be e416 86be 849c a2be 7525 b7bd
00000360: da4a 52bc 1797 37bc b4cb 26be c477 c1be
00000370: 7436 3b3a 4488 aa3c b019 9d3e 5aca edbe
00000380: 480d 88be 3628 a8be 56e8 e5bf 4354 a4bd
00000390: c5c3 d8bd e4eb 50bc 871c dc3b 32ee ff3d
000003a0: 10dd 87bd 0901 063e a1c7 553d 50d2 11be
000003b0: 9481 d43d b5b2 d5bd 6417 063c 3c80 5fbd
000003c0: e582 543d ba49 2f3e 25b8 3dbd f201 d2bd
000003d0: 86b2 003c 9680 aa3c 8444 1a3e 42d2 09be
000003e0: fe3f 19bd 2d2e 3d3d 9d2b 1d3b 2056 ee3d
000003f0: 3167 9ebd 317b 9a3d 036d 07bb ea66 0abc
0.0108554 0.01913349 -0.099816985 -0.17680804 -0.114427574 0.03829129 -0.135877 0.06338298
-0.13445023 -0.13276212 0.07413442 -0.2741601 -0.1639996 -0.77810156 -0.30576238 0.03017843
0.040140036 -0.12818277 -0.32727852 -0.0709896 -0.015058822 0.25082368 -0.17121974 -0.23542194
0.28037944 0.039041717 0.08307433 -0.75408036 -0.15984583 0.032951787 -0.21408474 0.16916455
0.011782008 -0.14791456 0.017075913 -0.2037292 -0.022559477 0.23047277 0.017962648 0.0006583399
0.016606024 -0.18071543 0.047401763 -0.19701132 -0.08360433 -0.0024584134 -0.07003595 -0.010582119
0.05157209 -0.02410715 0.15468949 0.13920985 0.20001698 -0.009943106 -0.076916315 -0.061209716
-0.93273634 -0.16106477 0.0012889323 -0.06856178 0.0062343776 0.06903941 -0.051128354 0.07518916
0.07928362 -0.11257755 0.130255 0.08826701 0.15853569 0.031250644 -0.0071339873 -0.15809874
-0.005164252 -0.0015817017 -0.00572124 0.27010483 0.05220834 0.029749744 -0.0997628 -0.5041901
-0.005026981 0.21830043 0.12512535 -0.7871436 -0.15945928 0.03575605 0.10345021 -0.3934337
-0.0040640235 -0.32450047 0.06608417 0.0899973 0.35587734 -0.07005712 -0.22440138 -0.119823664
0.1795745 -0.17077032 -0.5648113 -0.26019976 0.2926157 0.13589586 -0.054251373 -0.27694985
-0.2743588 -0.11135784 -0.015860999 -0.27274394 -0.29124305 -0.009718271 -0.034607556 0.17926545
-0.19135045 0.12705117 -0.06417421 -0.8507289 -0.22219 0.0068815076 0.20019317 0.092383794
-0.05654739 0.18561406 -0.046049565 -0.019272929 -0.23538357 -0.41656768 -0.2451206 0.102045
-0.041779753 0.03756749 -0.13099197 0.14391714 -0.03997578 -0.090600766 0.0067356196 -0.38270092
-0.12752369 0.0010119836 0.2791818 -0.018435353 -0.013630093 0.09271036 0.30543077 -0.023593485
-0.14546266 -0.134504 0.019928155 -0.011809222 -0.23106778 -0.19691451 -0.1640635 -0.38982502
0.0024266425 -0.3651458 -0.008474974 0.02624306 -0.0596884 -1.7433562 -0.0040592607 -0.07190682
-0.08942379 -0.30441296 -0.4089032 -0.21895143 -0.15278913 0.011319155 -0.13648644 -0.046936594
-0.3924438 -0.12851717 0.22316071 -0.17396389 -0.6231202 -0.28184518 -0.2917428 0.20990771
-0.20014618 -1.5960643 -0.2704389 -0.26445767 0.1873329 -0.24780598 -1.5281981 0.010095126
0.066454485 -0.17648974 -0.25178483 0.07370306 -0.0030237474 0.15464322 0.11714649 0.33137274
-0.38102788 -0.3310765 -0.7497039 -0.36522755 0.11452894 0.042028565 -0.30166456 0.11761064
0.033892654 0.021806834 -0.032657698 -0.51543814 0.05269344 0.060469825 0.1366236 -0.03838162
0.029384315 -0.05392765 -0.05560863 0.13722703 -0.13155602 -0.2618934 -0.31760037 -0.08942691
-0.012835229 -0.011205456 -0.16288644 -0.37786686 0.0007141598 0.02081693 0.3068366 -0.46443444
-0.26572633 -0.3284318 -1.7961528 -0.08023884 -0.10584215 -0.012751553 0.006717268 0.12496604
-0.06633961 0.13086332 0.052192334 -0.14240384 0.103762776 -0.10434476 0.008184288 -0.054565653
0.051882643 0.17117968 -0.046318192 -0.10254277 0.007855063 0.020813268 0.15065199 -0.13459113
-0.037414543 0.046186615 0.0023982294 0.11637521 -0.07734526 0.07543028 -0.0020664341 -0.008447388

fc1.bias f4 [128]
00000000: 87c4 b2bd 702b 343d e77d 0abd 0082 2bbd
00000010: 3a77 d8bc 3658 f3bd 9061 b33d f879 1c3d
00000020: aefb 26be 9caf 363d e53d 10be e19b 1fbe
00000030: d10e 9abd 9967 32bd cf43 99bd f64a c0bd
00000040: b2d8 a73c 6886 9bbd e2b2 04be 4a7f 7ebd
00000050: 5d2e 05bd 86ae 443b 5e3e 743d 43b5 b8bd
00000060: f237 58bd 970f 2a3e 9da2 3c3e fde8 1f3d
00000070: 68bc 4dbd e1c9 d8bd 916e b23d a145 043e
00000080: ca43 03bd fe97 12bd f425 2c3d 4006 4cbe
00000090: 07c9 30bb 6940 233d 9420 4bbd 3840 3f3d
000000a0: 57db bd3c bf0b a73d 3ec6 f33d 5447 433c
000000b0: bfdb a93d 6911 d3bc 7d10 073e 7c50 cfbd
000000c0: 2d9c 15be 8af3 eebc 2d2b c03d 6fc3 9ebd
000000d0: 2ef4 9d3a b025 fd3b 323b 81bc d1c1 293c
000000e0: 2463 bdbd 9429 af3c ab9c 1c3d 690d 0ebd
000000f0: 7b8d 70bd 089d bc3a c616 0d3e effe 6bbd
00000100: 5795 d73d c3f9 c93d 5822 243d d56c 32bb
00000110: cc22 65be 8a26 3fbe 3144 5dbd dd0f 9bbd
00000120: 611a dc3d 06da 41be 659d 11be 28cd dfbc
00000130: 2ae7 d43d dfa7 f5bd 934f d23c c6fe 9d3c
00000140: b595 24bc ac9e 6b3d 3d74 8d3d b574 12be
00000150: 6d0f 2fbd adda 063e a855 c83d b970 3ebd
00000160: 9982 77bd 93a1 a03b d601 eb3d a270 8cbd
00000170: cdc6 57be 2da5 0fbe 1cc3 dfbc 1ad6 6b3e
00000180: ef09 8bbc e2f0 1fbe b3e8 d8bd 3343 ec3d
00000190: 5d72 00be aec2 5fbe ee59 bf3d a097 333e
000001a0: 0040 83be 2c5c ebbd 7751 8ebd ca93 4c3e
000001b0: 5721 1dbe 6d7f c1bd ed4c 553d aca5 9abd
000001c0: 6b44 d4bd 600c dbbd d7f0 a4bc a74d 053e
000001d0: 3aeb 9a3d a79d d73c 32cd f73c f7f8 63bc
000001e0: 4fcc 93bc 38e9 5f3d 9db1 50bd ca09 3ebe
000001f0: 07af e2bd 530d bc3c 0820 e53d 37f0 a8bd
-0.08728891 0.043986738 -0.033811476 -0.041872025 -0.02642404 -0.11882059 0.08758843 0.038202256
-0.16306946 0.044601068 -0.14086111 -0.15586807 -0.07522357 -0.04355583 -0.074836366 -0.09389298
0.02048907 -0.07593995 -0.12958863 -0.06213311 -0.03251492 0.003001125 0.05962979 -0.09018948
-0.05278773 0.1660751 0.18421407 0.039040554 -0.050228506 -0.1058538 0.08712495 0.12917186
-0.03204707 -0.035789482 0.042028382 -0.19924259 -0.002697529 0.03985635 -0.049591616 0.046692103
0.023175878 0.08156537 0.11903046 0.011918861 0.08293866 -0.025765138 0.13189884 -0.10122773
-0.14610358 -0.029168863 0.09383235 -0.0775212 0.0012050921 0.00772544 -0.015775297 0.010361151
-0.09247425 0.02138213 0.038235348 -0.034680758 -0.058728676 0.0014390061 0.13778219 -0.05761617
0.10526531 0.098620914 0.040071815 -0.0027225513 -0.22376555 -0.18667045 -0.05402011 -0.07571385
0.10747219 -0.18930826 -0.14220197 -0.027319506 0.103956535 -0.119949095 0.02567271 0.019286525
-0.010045459 0.05752437 0.06906936 -0.14302333 -0.04273932 0.13169356 0.09781963 -0.04649422
-0.060427282 0.0049020736 0.114749596 -0.068574205 -0.2107193 -0.14027853 -0.027314715 0.23030892
-0.01697251 -0.15619233 -0.10591259 0.11536255 -0.12543626 -0.21851608 0.093433246 0.17538309
-0.25634766 -0.1149219 -0.06949132 0.19978252 -0.1534475 -0.09448133 0.052075315 -0.07551131
-0.10364612 -0.1069572 -0.020134373 0.13017903 0.07564397 0.026320292 0.030249212 -0.013914338
-0.018041758 0.054665774 -0.050950635 -0.18558422 -0.1106854 0.022955572 0.1118775 -0.08248942

fc2.weight f4 [64, 128]
00000000: e188 dcbd 73ea c4bd 5f92 b3bd 2b28 003d
00000010: 1acd 613d 7136 173b 01d5 003d 8eff 0abb
00000020: 3129 613d 7c65 2f3d 0e3b 633c 9f68 843a
00000030: e51b 5c3d 5110 c7bd 4e5e 79bd d643 743c
00000040: a5d5 273c 1f90 acbd 056e 95bd 1bd0 73bd
00000050: 3a80 813d 0d45 693d 4ab4 90bd 40cf 92bb
00000060: 6eaf 48bd 4e5b 6a3d b659 1abe 0bb9 69bd
00000070: 6b25 abbd 5c57 843c 88fa 34bd 4a33 293d
00000080: 58f0 d63c a780 56bd fcb1 5ebd efe8 ebbc
00000090: 3621 9c39 8736 79bd c9fe 923c 0f4f 5ebc
000000a0: a6ed e2bd d4bb 8cbd e31c 88bd abbf 0b3b
000000b0: e085 d1bc f861 80bc 2c1b b1bd eeec d8bd
000000c0: c6ff 0abd 1daa 68bd 3871 e7bd fcf4 b3bd
000000d0: 50a2 aebd c26d cdbd 297a ebbb 01c2 39bc
000000e0: b2ff 033d 8d56 04be 86cd cb3b 6f60 c83b
000000f0: 07cd 3a3d 42d5 02bd 01cf 023c 31e5 cabd
00000100: 2497 cabb 59d8 783d e1b0 1a3d fdae 10be
00000110: 3cae 0abd b635 42bd dbe8 2e3c 6816 8bbd
00000120: d0bb a43a a5b2 20bd 504e c4bd 3260 d2bc
00000130: 7cc4 9cbd 096d a4bd 3d7a 053d ea9e 8c3d
00000140: 545d 41bd 9808 1b3d 4de8 243d f220 afbd
00000150: aacf 94bd 23a2 83bd 738c d9bb eb97 05bc
00000160: ad07 abbc 87bb 503d fa77 f5bc 3203 6bbd
00000170: 46d1 a1bd fb2d 38bd 11d2 bb3d 4c8c 54bd
00000180: b6f7 68bd 7da7 f53c cf81 6cbd cc02 69bd
00000190: e912 783d 4080 90bd c7f5 8fbd 8e1e 03bd
000001a0: 0d1f 43bd 2aeb 91bc bb8d c03c 958a b4bd
000001b0: 2526 523d ff2a a0bd 24e6 d53a 6b74 ffbc
000001c0: c8f3 78bd 9900 a63d 4c7c b4bd b09d c0bc
000001d0: ab4b 7f3c ca3d 5c3d 726d fabd 569d 1f3c
000001e0: dd84 063d 888f a6bd af87 c73a e092 68bd
000001f0: 6ce1 f03b c666 a8bd 3f9c 843c dd83 ddbc
00000200: 8edd 2e3e fc61 68be 8f35 2b3e 9131 89bd
00000210: ec76 18be ff6a 523e 0a43 2a3e 5be6 853b
00000220: d493 163d 2889 7c3b d2de dbbc baec 283e
00000230: 7c11 c5bc b158 b3bc 7306 9ebe 97f7 8bbd
00000240: 9a22 1f3e 8a61 93bd 8297 dc3d eab7 563e
00000250: aca9 893b f371 c8bc 6ba2 9c3c d2d3 d0bd
00000260: 572a edbd 697f 22be 2092 99bd 7973 d8bd
00000270: d7d8 033e 723b 7cbe 78c7 0d3c 51d9 103e
00000280: 77dd c9bc 5cf0 22be bd9c 833e a64d 093e
00000290: a90e a53d bbf0 203d 4f79 9dbe ae92 fcbe
000002a0: 695c 9cbd ef34 303d b520 a8bd 3498 43be
000002b0: 357c a03d 1e21 113c b737 bebd b641 10bd
000002c0: b087 d4bd f2b2 c1bc 240a 4abe fad8 873b
000002d0: 6100 a63c b5ca 02be d8b6 86bc 87eb d53b
000002e0: 579f c03c d1cb dd3b 1798 a6be d2b2 4d3e
000002f0: 6406 9fbe 15e1 0f3b dae3 253e 78ec 7fbb
00000300: 53d8 133d 76cd 8abd 7572 cd3d 6e00 c83d
00000310: 169d f73d 40db adbc 0cb0 8c3d 4cd7 dabc
00000320: c5dd 1dbe 2078 d1bd 9c28 453b 932b 9abe
00000330: a7ea 8c3d c29c 26be cb8a 89bd a434 cd3c
00000340: ae12 6b3c 22d2 463c 3ace df3d 012f acbe
00000350: 17ca 9b3d 4a5d 17be 72e5 89bd 28a0 013e
00000360: 67b7 633d 75e8 463d 822c a73d 50ba 41bb
00000370: 8cfe 163d 2c38 26be 4eda fdbd 00fc 0ebd
00000380: 5eb8 2c3d f845 4e3e 8c0d 91bd 560c 08be
00000390: 8543 993d b0b0 0f3e 5958 bbbd efe1 f8bc
000003a0: b1bf d53d 881d f33d 8634 223e 5062 21bd
000003b0: 07ed 83bd e535 3c3d e3d0 383d ab9c a2bd
000003c0: f138 b63d 3343 ad3d d7ab f83d f2c2 383d
000003d0: c48f 6cba d5d6 293d e2b0 3fbd e406 4e3d
000003e0: 516c 24ba bb76 3b3d fc76 63bd f596 06be
000003f0: 1d36 8abd 0c9d 7f3d 2ff8 023e 4d50 8b3c
-0.10768295 -0.0961503 -0.087681524 0.031288307 0.05512724 0.002307322 0.031453136 -0.0021209451
0.054970924 0.042821392 0.01386906 0.001010198 0.05373754 -0.09719909 -0.06088095 0.0149087515
0.010243808 -0.084259264 -0.07296375 -0.059524637 0.063232854 0.056950618 -0.070656374 -0.0044802725
-0.048995428 0.05721598 -0.15073285 -0.057061236 -0.08356746 0.016154937 -0.044184238 0.04130868
0.026237652 -0.052368786 -0.054368958 -0.028797595 0.00029779383 -0.060843017 0.017943757 -0.013568654
-0.11080484 -0.06871763 -0.06646135 0.002132396 -0.025576532 -0.015671715 -0.08647761 -0.10592066
-0.03393533 -0.056802858 -0.11300892 -0.087869614 -0.085270524 -0.100307 -0.0071861935 -0.011337758
0.032226272 -0.12923642 0.0062195687 0.0061150114 0.045605686 -0.03194166 0.007983924 -0.09906996
-0.006182568 0.0607532 0.03776634 -0.14129253 -0.03385757 -0.047414504 0.010675634 -0.06791383
0.001256818 -0.03923287 -0.095852494 -0.025680635 -0.07654664 -0.08028609 0.03258728 0.06866248
-0.047208145 0.037849993 0.0402606 -0.08551206 -0.07266171 -0.064274095 -0.0066390573 -0.008153896
-0.020877684 0.05096009 -0.029964436 -0.057376094 -0.07901244 -0.044965725 0.09170926 -0.05189161
-0.05687686 0.029987091 -0.057740983 -0.056887433 0.06056491 -0.07055712 -0.070293 -0.03201156
-0.047637034 -0.01781233 0.023505082 -0.08815495 0.05130591 -0.07820701 0.0016319198 -0.031183442
-0.060779363 0.08105583 -0.0881277 -0.023512691 0.0155820055 0.053769864 -0.12227906 0.009742102
0.032841552 -0.08132845 0.0015222932 -0.056780696 0.007351091 -0.082227275 0.016187785 -0.027040416
0.17076704 -0.22693628 0.1671965 -0.06698907 -0.14889115 0.20548628 0.16627136 0.0040862984
0.036762074 0.00385339 -0.026839647 0.16496554 -0.024056189 -0.021892877 -0.30864295 -0.068343334
0.15540543 -0.071963385 0.10771085 0.20968595 0.0042011347 -0.024468398 0.019120416 -0.101966515
-0.11580341 -0.15868916 -0.07498574 -0.105689 0.12875687 -0.24632052 0.008653514 0.141454
-0.024641735 -0.15912002 0.2570552 0.13408527 0.08059437 0.03929208 -0.30756614 -0.49330658
-0.07634813 0.04301923 -0.08209363 -0.1910103 0.078361906 0.008857993 -0.092879705 -0.035218917
-0.10377443 -0.023644898 -0.19730431 0.0041457387 0.020263853 -0.12772639 -0.016444609 0.006528321
0.02351348 0.0067686816 -0.3253791 0.20087746 -0.31059563 0.0021954228 0.162002 -0.0039050858
0.036094975 -0.0677747 0.100315966 0.09765707 0.12090509 -0.02122271 0.06869516 -0.02671399
-0.1541663 -0.1022799 0.003008402 -0.3011137 0.06880694 -0.16270736 -0.06715926 0.025049515
0.014347715 0.0121350605 0.109280065 -0.3362961 0.07606905 -0.1478168 -0.06733216 0.12658751
0.055594828 0.048561532 0.08162786 -0.0029560514 0.03686385 -0.16232365 -0.12395154 -0.034908295
0.042168014 0.20143878 -0.07082662 -0.13285956 0.074835815 0.14032245 -0.0914771 -0.030381171
0.10436953 0.11870867 0.15840349 -0.0394004 -0.06441694 0.045949835 0.045121085 -0.07940038
0.088975795 0.08460083 0.12142151 0.04510779 -0.00090241083 0.041464645 -0.046799548 0.05029954
-0.0006272244 0.045767527 -0.055533394 -0.13143523 -0.067486025 0.06240563 0.12789987 0.017006064

fc2.bias f4 [64]
00000000: 7b5f afbd 19fd c23d 6dc5 b0bd f109 a0bd
00000010: b83b 9fbd 594b c03c 4ec8 63bd aaf4 8f3e
00000020: 93de 92bd 3e6a 9bbd 0a02 8b3e 0b3a 33be
00000030: 9c07 6ebd d402 a2bc db4d 10bd baf7 a83c
00000040: 0ca1 2f3d e5fd 9d3c 6947 29be d719 b3bc
00000050: e5f0 7f3c e33d 033d ef40 c33d eb49 23bc
00000060: 6d5f 94bc 3356 823d 3c84 2ebd 656a c23d
00000070: 2712 273e 1788 723d e600 9d3d df47 473e
00000080: 9b46 7abd 3653 10bd 8da3 b43d 5b49 9bbd
00000090: 7a58 6abd 8b63 84bd 0b39 353d e0c6 b7bd
000000a0: 02f5 5ebb f429 933c 127a 263d 6096 123e
000000b0: 2525 423e 3070 693d b20c 9bbd c2db 74bd
000000c0: 858c 8cbd bf38 78bd a7b4 babd 5d1f 6cbd
000000d0: 5730 e63c 8512 84bc ad9d 11bc d9fb 4e3d
000000e0: 510b 4f3c 60c2 1a3e 6b61 1d3e 745f 78bd
000000f0: a45e 46bd a0dc 70bd b49a 03be ce64 2dbd
-0.08563133 0.09520931 -0.08631406 -0.07814396 -0.07775062 0.023473429 -0.055610947 0.2811635
-0.07171359 -0.075886235 0.27149993 -0.1750261 -0.058112726 -0.01977674 -0.0352305 0.020625938
0.042878196 0.019286105 -0.16531147 -0.021862907 0.015621399 0.03204144 0.095338695 -0.009966354
-0.018111909 0.063640974 -0.042606577 0.094929494 0.16315518 0.059211817 0.07666187 0.1946101
-0.06110249 -0.035235606 0.08820257 -0.07582351 -0.057213284 -0.06464299 0.044243854 -0.08973479
-0.0034020548 0.01796434 0.04064376 0.14315176 0.18959482 0.056991756 -0.07570781 -0.05977989
-0.068627395 -0.060600992 -0.09116488 -0.057647098 0.028099222 -0.016122112 -0.0088876905 0.05053315
0.012636975 0.1511321 0.15369193 -0.060637906 -0.0484301 -0.058804154 -0.12851983 -0.042332463

fc3.weight f4 [32, 64]
00000000: 2dea aa3d cfce 633c fb54 adbd 4453 0c3e
00000010: 5bb4 aa3e 4a51 29be 7432 3cbd b81f 81bd
00000020: 3d7d 15be 3ced 963b 0680 31bc 3799 a33d
00000030: 1b37 ebbd 24f5 e63d 8c16 5abd ea26 bc3d
00000040: 4465 a9bd 87d6 8dbd 3b15 71bd 4c74 71bc
00000050: abee cabc 3770 df3d 0474 8fbc 0c53 1f3b
00000060: 1abb 52be 9e96 b1bd 8641 d8bc 7868 823d
00000070: bb37 8abe 61eb 0bbd 8998 d9bc 4351 733d
00000080: 2d0b bb3d 51c0 e8bc 999f ac3d 891f bbbd
00000090: e1c7 fc3d a55e 8f3e b29b 03be c33d da3e
000000a0: b747 323e 2a3f fd3c de0e 58be fbe6 c23c
000000b0: 0f63 14be 4f13 47be fcf4 da3d 9b16 81be
000000c0: d4f7 e23c 7aeb cbbd e079 5a3e 9c34 dabc
000000d0: 278f 44be 6589 273e 15df a83c 3efb 413d
000000e0: 14f2 76be 5bab 0abe 3055 023d 6bee 163e
000000f0: 216c 88be 4368 82bc b277 103d e2b3 20be
00000100: 7786 4f3c 270a aab9 ac70 1d3e add1 37bd
00000110: c29b 02be 6134 31be 6830 9c3d 78ab 2ebc
00000120: 916b 303c 093d d93d 40e7 823d 2a81 193e
00000130: 7fae d73e 5848 9d3e c1fc 873d ed0a d93c
00000140: 0414 96bd 1fcb d7bc 9b8d 1f3d 0d28 d93e
00000150: b39c 95be 98ab 9dbc cd76 6fbd cdfd 5bbd
00000160: b04c 27be 9ed4 bfbc 9166 fcbc 7959 8abd
00000170: 16ec 933d a6ed 77bc 374e d3bd 8893 e73a
00000180: 1cee 5b3c 52da 2dbc a74c 0abe ae56 ac3c
00000190: e38e 8a3e b1c5 6dbd e8d3 babd ab0b 80be
000001a0: cfa6 9cbe c8ce 6bbd b0b5 89be c2eb c63d
000001b0: 1f24 a13d 6e80 1bbe 481c a0bc f535 2b3e
000001c0: e52a a23e 1436 f4bd 7409 3fbe 8d56 8b3e
000001d0: 6279 c6bb c364 ba3e d2bf 3e3e 9b2e 62bd
000001e0: b073 163e af37 923b c411 c63d 517c 8d3e
000001f0: 65c2 ffbd 19ca 413d 28d4 9a3d d705 333e
00000200: fe28 203d 0adc 8cbd 09f7 903c fe00 5b3d
00000210: 3396 7a3e 83f0 083d 71af 31be de1e f43d
00000220: 5177 3cbd 0026 b2bd 7171 663d 4964 443d
00000230: d61a c5bd 0191 13be e231 403e e479 adbe
00000240: 2d35 c7bd ce00 5ebd d281 acbd a4d4 59be
00000250: 29f4 833e bd8b bdbc 26b4 cabc b43e 20bc
00000260: 4a75 39be 011b 05bd 24c3 0d3d 6e8b 85bd
00000270: 7057 eebd 9673 f4bd 6496 b03d 41b9 a63c
00000280: a714 b7bd debe 0fbe bc06 f8bd 8c28 36bd
00000290: d5d6 b0bb aa91 da3d 3f11 62bd cd87 633e
000002a0: df7b 6f3e e7b9 f1bd a807 31be 2aca 2dbd
000002b0: dcdd 5f3c dcc3 8dbc 0afd 5ebd 566c 27be
000002c0: d0e0 d2bd e796 113e c096 033e 8aab 80be
000002d0: 25c2 03be b618 3fbe 5bd4 e2bd 5063 0b3e
000002e0: 120e 2cbe 710c 22be 7658 b13d b7bc 0fbc
000002f0: f22b 0d3d 512d 4fbe 4fda 6cbe 307a 72be
00000300: 90f7 edbc c6cc ccbd fce8 9b3d 2f1d 973d
00000310: 8072 613c ffd9 9cbc 5602 c0bd f3fc f9bd
00000320: 3487 c5bd 7e99 ebbd 7afb 0ebe f00f 703d
00000330: eef7 ccbd 57a5 623d 26fd 873d 0064 04ba
00000340: 72ae d63c 4ac2 8c3d 8647 debd 2220 dd3d
00000350: a36f e83d 2049 f43d 120d 98bd 0228 9d3d
00000360: 4054 53bd 1055 573c f1cc cc3d 4f65 ae3c
00000370: 7cb2 bd3c 09a1 2bbd c146 75bd 537f a43d
00000380: e6f4 0dbe 5fea 9fbc 546c d1bc daad 47bd
00000390: 3015 fabd 423a 98bd 401e 92bd c960 afba
000003a0: a0b3 473d a011 f9bd c8e3 44bd 2237 0cbe
000003b0: a8ed 7c3d d69c 00be a8fb 88bc 5cf8 3dbd
000003c0: f497 92bd dfb5 8b3d 3c0c 5b3d 6ca4 423d
000003d0: d96c af3d 3098 73bd 9de4 123d 97f0 ba3d
000003e0: 217d 25bd 5f8f a5bc 8d22 86bc 2e8b 22be
000003f0: 9a29 55bc 7f43 aabc 7d9f bcbd 1d39 b13d
0.08345447 0.0139042875 -0.08463474 0.13703638 0.33340725 -0.16534916 -0.045946553 -0.06304878
-0.14598556 0.0046059173 -0.010833746 0.07988208 -0.1148512 0.112772256 -0.05324416 0.0918711
-0.08271268 -0.069256835 -0.058858138 -0.0147372 -0.024772009 0.10910075 -0.017511375 0.0024310974
-0.20579186 -0.08671306 -0.026398432 0.06367582 -0.26995644 -0.03416002 -0.026561992 0.05940367
0.09132991 -0.028412016 0.08428878 -0.09136874 0.123428114 0.28001896 -0.12852362 0.42625245
0.1741017 0.030913908 -0.21099421 0.02379178 -0.14490913 -0.1944096 0.10691258 -0.2521256
0.027706064 -0.09957023 0.21335554 -0.026636414 -0.19195233 0.16361006 0.020614186 0.047358744
-0.24115783 -0.1354193 0.031819522 0.14739387 -0.26644996 -0.015918856 0.0352704 -0.1569362
0.012666336 -0.0003243249 0.15375012 -0.044877697 -0.1275473 -0.17305137 0.0762642 -0.0106609985
0.010767833 0.10607345 0.06391764 0.14990678 0.42125317 0.30719256 0.06640006 0.026494468
-0.073280364 -0.026341973 0.038953405 0.4241337 -0.29221115 -0.019246861 -0.058462907 -0.05370884
-0.16337848 -0.023416813 -0.030810626 -0.06755347 0.07222764 -0.015132343 -0.10317653 0.0017667869
0.013423469 -0.010611134 -0.13505803 0.021037426 0.2706214 -0.05804986 -0.09122449 -0.25008902
-0.30596015 -0.05757025 -0.2689643 0.09712936 0.07868218 -0.15185711 -0.019544736 0.16719802
0.3167335 -0.11924377 -0.1865595 0.2721447 -0.0060569504 0.36405 0.18627861 -0.055220228
0.14692569 0.0044622044 0.09671357 0.27633908 -0.1248825 0.047311876 0.07559997 0.17482696
0.039101593 -0.068779066 0.01769592 0.053467743 0.24471359 0.033432495 -0.17352082 0.1191995
-0.046012226 -0.08698654 0.05626053 0.047947202 -0.09624259 -0.14410783 0.18769029 -0.33882058
-0.09726939 -0.054199986 -0.08423199 -0.21272522 0.25772217 -0.023137921 -0.024744105 -0.009780575
-0.18111148 -0.032496456 0.03460993 -0.06520735 -0.11637771 -0.11936109 0.08622435 0.020352008
-0.08939486 -0.14037654 -0.121106595 -0.044472262 -0.0053967037 0.106723145 -0.05519223 0.22219773
0.23387097 -0.11803036 -0.17288077 -0.042429127 0.013663735 -0.017305307 -0.054440536 -0.1634992
-0.10296786 0.14217721 0.12850475 -0.25130874 -0.12867029 -0.1866177 -0.1107566 0.13612103
-0.16802242 -0.15825059 0.08659451 -0.0087730205 0.034465738 -0.2023213 -0.23130153 -0.23679423
-0.029048711 -0.09999995 0.076127976 0.07378613 0.013760209 -0.019146917 -0.093754455 -0.12206449
-0.096449286 -0.11503886 -0.13963118 0.05860895 -0.10008226 0.05533346 0.06640081 -0.00050503016
0.026206229 0.06872995 -0.10853486 0.107971445 0.11349418 0.1192801 -0.07424368 0.076736465
-0.05159402 0.013142839 0.10000027 0.021288542 0.023156397 -0.041901622 -0.05988193 0.08032098
-0.13862953 -0.019520937 -0.02556435 -0.048749782 -0.122110724 -0.07432987 -0.07134676 -0.0013380285
0.048755288 -0.12161565 -0.04806879 -0.13692906 0.061750084 -0.12559828 -0.016721562 -0.046379432
-0.07157889 0.068217985 0.053478464 0.047520086 0.08565683 -0.05947131 0.035862554 0.0912792
-0.040402535 -0.020209966 -0.016373897 -0.15873405 -0.013010407 -0.020784138 -0.092101075 0.086534716

fc3.bias f4 [32]
00000000: e665 81bb fcab 4f3a 3fb4 193d 91e8 0bbe
00000010: 9736 b13d d126 f7bd cb42 d23e 0da5 a73e
00000020: 4c39 b1bc 0f24 923e 48fd 40be ad8c 013d
00000030: 99a0 153e 14c5 bb3b 1d21 a93e 89f3 f7bd
00000040: ccf2 87be 1235 0fbe d668 983e cf25 a53d
00000050: 924b 9f3e 08cd ccbb 1f7d 863e e2d9 a13e
00000060: 0599 11bd 6960 aabd ba8d 823e 2eb9 193e
00000070: 0b10 c3bd c9e1 b33d 114c b83e bb89 c43e
-0.003948915 0.0007922051 0.03752541 -0.13662936 0.0865299 -0.120679505 0.41066584 0.3274311
-0.021633767 0.28543136 -0.18846619 0.0316283 0.14612044 0.0057302807 0.33033076 -0.121069975
-0.26552427 -0.13985088 0.29767483 0.08063852 0.31112343 -0.0062500276 0.26267335 0.31611544
-0.03554632 -0.0831917 0.25498754 0.15012047 -0.09524544 0.087832995 0.35995534 0.3838633

fc4.weight f4 [5, 32]
00000000: 380c b23d 7a1d 0ebc b827 853e f0b8 943d
00000010: 5042 fcbe 78eb cc3d 373f 7a3e 2d51 283e
00000020: 0e07 bc3e 3a81 8a3e 983b e3bd 9e63 f4be
00000030: 2e4e 6bbd d9c9 de3d dafc cd3c 1a29 dabe
00000040: 4bb0 8ebd a8bf 5dbe b413 0a3e 04b2 253e
00000050: a627 303e 0773 373d 9cd1 f93c 10f8 aa3d
00000060: cb7a f0ba a073 35bc be6e 423e 6b91 4c3e
00000070: f0e7 44be 69dd 3c3e bf4a a43e a692 503d
00000080: 8ecc fb3d 3c01 bcbc 2797 b5bd 9bf5 ef3c
00000090: 245f a8be 6d83 4b3d 3019 c13d f16a 0b3e
000000a0: e4a8 4f3e bb90 043e 708a 85be 88fd 333e
000000b0: 7c6c 23bc 47a5 5e3d 9e15 d83d 8d8b eabd
000000c0: 282b a8bd 9816 0fbe cfb9 4f3e ec3e 193f
000000d0: 86e0 6c3c f206 cf3e 17a8 943e aae4 7d3e
000000e0: fe37 2f3e 079a b8bc 351f 623e 6150 8c3e
000000f0: fec7 173e c96d c03d 9f82 773d c61e 913e
00000100: 0dbf 013e 87d1 1bbe 0ed6 843d 5ca8 a73c
00000110: 38e6 39be bf9a 1a3d f8b8 8b3e 4d8d ccbc
00000120: e243 a6bd 810c cc3d fdb8 02be bb47 6fbe
00000130: dc15 8abe b61b 673e 85d0 143e c39c 2dbe
00000140: 9a43 c9be 8aa8 cc3d 73d7 443d 0aec f13e
00000150: 5307 a63e 9dc9 ee3e 44ae 833e 6ac6 843e
00000160: aa38 4dbd dd61 a73d 93b9 c4be 762c 1dbe
00000170: b998 60be f3f0 dabe f113 db3d a72c ed3d
00000180: 368a a9be ff09 f73d b544 97bd ac6c 31bd
00000190: d871 49bd 2e0e 67bd e486 7a3e 67c9 623e
000001a0: 13ba d33a d5ad 883d 3ba7 cbbd a086 54be
000001b0: e4b1 ab3e c2ea d5be a459 723e b650 c9be
000001c0: 904f f0bd 31db 8bbe 4e2e f13d 6cc4 57be
000001d0: 405f df3c 709b 11be a48d de3d 9b0a 423d
000001e0: 2e29 913e 1bcf f7bd 1be6 a8be ec17 74be
000001f0: be11 e7be 36bf 053d e819 953e b2a4 723e
00000200: a88d b4be 00a0 7f3d 1461 1a3e ea56 be3d
00000210: a6e0 adbe ffdc 093d 2211 df3d 16a7 6a3e
00000220: 5231 543e efcc 603e e378 9bbd c56f 8dbe
00000230: 5f83 56bd 1b99 c9bc f503 723e 8eed 59bd
00000240: dde0 21be 4698 4bbe 47cf 433e 258a f23e
00000250: ca50 6b3e 5441 9c3e 0d34 8f3c 0279 823e
00000260: 2c99 c9bd 9e46 22bd 8377 c43e bee6 413e
00000270: eec5 fdbd d576 03bf 691e 523e cd98 4f3e
0.08693737 -0.00867402 0.26006866 0.072618365 -0.49269342 0.100058496 0.24438177 0.16437216
0.36724132 0.27051717 -0.11095351 -0.47732252 -0.057447605 0.10878343 0.025144983 -0.42609483
-0.06967219 -0.21655142 0.13484079 0.16181189 0.17202625 0.044787433 0.030495457 0.083480954
-0.0018347142 -0.01107493 0.18987557 0.19977348 -0.19229102 0.18443836 0.32088277 0.050921105
0.12294875 -0.022949807 -0.08866721 0.029291919 -0.32885087 0.049685884 0.09428632 0.13615014
0.2027927 0.12945835 -0.26082182 0.17577183 -0.009974595 0.05435684 0.10550998 -0.114523984
-0.082113564 -0.13973463 0.20285724 0.59861636 0.014457827 0.40434986 0.29034492 0.2479426
0.17111203 -0.022534383 0.22082217 0.27405074 0.14822385 0.0939594 0.060427304 0.2834379
0.12670536 -0.15216647 0.0648614 0.020466022 -0.18154228 0.037745234 0.27289557 -0.024969721
-0.08118416 0.099633224 -0.1276588 -0.23367207 -0.26969802 0.22569165 0.14532669 -0.16954331
-0.39309388 0.09993084 0.04805703 0.47250396 0.32427463 0.46638194 0.25718892 0.25932628
-0.050102867 0.08172963 -0.38422832 -0.15348992 -0.21933259 -0.42761955 0.10697163 0.115807824
-0.3311326 0.120624535 -0.07386152 -0.04331653 -0.049180835 -0.056410007 0.24465519 0.22147141
0.0016153477 0.06673781 -0.09944006 -0.2075448 0.33534157 -0.41780668 0.23667008 -0.3931939
-0.11733925 -0.27315667 0.1177641 -0.21071023 0.027267098 -0.14219451 0.108668596 0.047373395
0.2835173 -0.12100049 -0.32988057 -0.2383725 -0.45130724 0.032653056 0.29121327 0.23695639
-0.35264325 0.062408447 0.15076095 0.09293921 -0.33960456 0.033658024 0.1089194 0.229153
0.20721939 0.21953176 -0.07591417 -0.27624336 -0.05237138 -0.02460914 0.23634322 -0.053205065
-0.15808435 -0.19882306 0.19122039 0.4737102 0.22980037 0.3051859 0.017480874 0.25482947
-0.09843668 -0.039618127 0.3837243 0.18935677 -0.12391268 -0.513532 0.20519413 0.20273133

fc4.bias f4 [5]
00000000: 39e5 933e 8c90 503e b993 7f3e 7eac 653d
00000010: b920 643d
0.2888582 0.2036764 0.24958695 0.056072704 0.05569527
