dqn/exercise/checkpoint.pth (torch_old, 47729 bytes, 8 tensors)

fc1.weight f4 [128, 8]
0	0x3e93dc1c	0.28878868
1	0xbeed7fdb	-0.46386608
2	0xbe54dd44	-0.20787531
3	0xbf296c1c	-0.66180587
4	0x3dc20c3c	0.0947499
5	0x3e44e74b	0.19228856
6	0xbc136368	-0.008995868
7	0x3eb4a953	0.35285434
8	0x3e995157	0.2994487
9	0x3e54e9b8	0.20792282
10	0xbde1792a	-0.11009438
11	0xbd4e1158	-0.05030951
12	0xbee8af8c	-0.45446432
13	0xbef97227	-0.48719904
14	0xbdc0bf91	-0.094115384
15	0x3eb624d8	0.35574985
16	0x3dfcd75c	0.12345764
17	0xbdeaa536	-0.11457293
18	0xbe046ee7	-0.12932931
19	0xbe8415c6	-0.25797862
20	0x3f0476e1	0.51743895
21	0x3f0cfa49	0.55069405
22	0x3d9a0887	0.07521158
23	0x3efa8374	0.48928416
24	0x3daa00ab	0.08300909
25	0xbc9e2bf5	-0.01930807
26	0x3e600464	0.21876675
27	0xbf35a60c	-0.7095649
28	0xbf172e8d	-0.59055406
29	0xbed9c900	-0.42536163
30	0xbcf88571	-0.030337067
31	0x3e74ba3d	0.2389917
32	0xbe14427e	-0.1447849
33	0xbf424572	-0.75887215
34	0xbddb4ba8	-0.1070779
35	0xbf4101c1	-0.753933
36	0xbec6dbae	-0.38839477
37	0xbdfc2133	-0.1231102
38	0x3dde722a	0.10861619
39	0x3e21f383	0.15815549
40	0x3e496f80	0.1967144
41	0xbde10f24	-0.10989216
42	0xbd615762	-0.055014975
43	0xbf0d170b	-0.55113286
44	0xbf283f78	-0.65721846
45	0xbef199f3	-0.47187766
46	0xbc67f69e	-0.014157919
47	0x3dae41d2	0.08508648
48	0xbe39d30d	-0.18146916
49	0xbe476cd1	-0.19475104
50	0x3eef7c97	0.46774742
51	0x3f1cce3d	0.61252195
52	0x3e271524	0.16316658
53	0xbd8c6d17	-0.06856745
54	0x3ec815c9	0.3907912
55	0xbe4c3764	-0.19943005
56	0xbe10c46c	-0.14137429
57	0xbf2712e5	-0.65263206
58	0xbe8ccb34	-0.27498782
59	0xbf2abf78	-0.6669841
60	0x3ef9a144	0.48755848
61	0x3d3dd700	0.046347618
62	0xbe819e6b	-0.25316176
63	0x3e2152c7	0.15754233
64	0x3e88bb75	0.26705518
65	0x3dfead0a	0.12435348
66	0x3d7b1b1f	0.06130516
67	0xbd769eba	-0.060209967
68	0xbd526a67	-0.051371004
69	0x3f4751e2	0.7785932
70	0x3d2e6d8c	0.04258494
71	0xbe715d43	-0.23570733
72	0xbd366050	-0.044525445
73	0x3e5f0e88	0.21782887
74	0x3eed65e5	0.46366802
75	0x3f1ee519	0.62068325
76	0xbf041379	-0.5159221
77	0xbe523387	-0.20527469
78	0xbbc27b05	-0.005935075
79	0xbf059e2e	-0.5219449
80	0xbecc6f81	-0.3992882
81	0x3e5702db	0.20997183
82	0x3ec40f1f	0.38292786
83	0xbf38c7d2	-0.721799
84	0x3cb5bc27	0.022184445
85	0xbe6c6ea5	-0.23089083
86	0xbcbe1779	-0.023204552
87	0xbda87bb4	-0.082267195
88	0x3eae9c52	0.34103638
89	0xbd061024	-0.032730237
90	0x3ef5a008	0.47973657
91	0xbe61984f	-0.22030757
92	0xbe9d74a1	-0.30753043
93	0x3eb78307	0.35842153
94	0xbe1fcab5	-0.1560467
95	0xbd87b09a	-0.06625481
96	0x3e88571c	0.2662896
97	0x3f071980	0.52773285
98	0xbea76567	-0.3269455
99	0xbe71c240	-0.23609257
100	0x3f11aeec	0.56907535
101	0x3f02f1ae	0.51150024
102	0xbe668d21	-0.22514774
103	0xbc3c8a54	-0.011507589
104	0xbe7f0e5b	-0.2490782
105	0xbe7b1f62	-0.2452369
106	0xbf083359	-0.5320335
107	0xbeeb4c09	-0.45956448
108	0x3ed67ed6	0.41893643
109	0x3e691135	0.2276047
110	0xbe46fceb	-0.19432418
111	0x3eb7b382	0.3587914
112	0xbe605941	-0.21909048
113	0x3f3842ce	0.71976936
114	0x3ec7a070	0.38989592
115	0xbdfd91d0	-0.12381327
116	0xbcc6d16b	-0.02426978
117	0xbe23cd18	-0.15996206
118	0x3dc3a26d	0.09552465
119	0x3e455e9d	0.19274373
120	0x3e7e61ef	0.24842046
121	0xbdcca7f3	-0.09992971
122	0xbe39e646	-0.18154249
123	0x3ea38e35	0.31944433
124	0xbf29b6ba	-0.66294444
125	0xbf0bd132	-0.5461608
126	0xbe6d881a	-0.2319645
127	0x3dcf5a86	0.10124688
128	0xbed69126	-0.41907614
129	0xbe349ee7	-0.17638741
130	0xbec40b6e	-0.3828997
131	0xbec70d7e	-0.3887748
132	0xbebecc4c	-0.3726524
133	0xbdf08514	-0.11744133
134	0x3e674497	0.22584759
135	0x3dcb13d0	0.09915888
136	0xbe4ce30f	-0.20008491
137	0x3cb70ef1	0.022345992
138	0xbdaaf5b4	-0.083476454
139	0x3e5ea125	0.2174116
140	0x3f079a39	0.529697
141	0x3f2cd7af	0.6751661
142	0x3e93b3d3	0.28848132
143	0xbdf40c7c	-0.11916444
144	0xbdadeb30	-0.08492124
145	0x3e2f099d	0.17093511
146	0x3ee95063	0.45569143
147	0xbd2ea945	-0.042641897
148	0xbf081fb7	-0.53173393
149	0xbea91180	-0.33021164
150	0xbea5078f	-0.3223233
151	0xbf0bca93	-0.5460598
152	0xbea859c7	-0.32880995
153	0x3e85e932	0.26154476
154	0x3e88c755	0.26714578
155	0xbf2f9fc5	-0.68603164
156	0xbbb107c2	-0.005402536
157	0xbe695ec0	-0.2279005
158	0x3e448ce9	0.19194378
159	0xbe65f3ec	-0.2245633
160	0xbb59873b	-0.0033192176
161	0xbdbd9fc4	-0.092589885
162	0xbf9b20fe	-1.2119443
163	0xbf688609	-0.9082952
164	0xbd86bd5a	-0.06579085
165	0xbd06164c	-0.032736108
166	0xbd03313c	-0.032029375
167	0x3e0abaf9	0.13547887
168	0xbf07596f	-0.5287084
169	0xbf8b4d96	-1.0883052
170	0x3dc327fb	0.0952911
171	0xbf7196be	-0.9437064
172	0x3f210e14	0.62912107
173	0x3da302d3	0.07959523
174	0xbf26a810	-0.65100193
175	0x3e9df380	0.30849838
176	0x3e476bdf	0.19474743
177	0xbdbd0b02	-0.09230615
178	0x3f60b399	0.87774044
179	0xbee0f5b5	-0.4393746
180	0xbd4d889c	-0.05017911
181	0xbe5b46a7	-0.2141367
182	0x3d764910	0.06012827
183	0x3a1b29b6	0.0005918996
184	0x3dfeefe1	0.12448097
185	0x3e609345	0.21931179
186	0xbe43394b	-0.19064824
187	0xbe2adcb8	-0.1668576
188	0xbec751fe	-0.38929743
189	0x3d8cd19d	0.06875918
190	0x3ca4a9a9	0.020100432
191	0x3d578a55	0.052622158
192	0xbd95afa0	-0.073088884
193	0x3dad8590	0.08472741
194	0xbf84a8cd	-1.0364014
195	0xbd4b3fa5	-0.049621243
196	0xbc3495a1	-0.011022002
197	0x3cceeab3	0.025258398
198	0xbe2eda15	-0.17075379
199	0xbdf76d43	-0.12081387
200	0xbe096140	-0.13416004
201	0x3ea3562f	0.3190169
202	0xbee484b2	-0.44632488
203	0xbec1eac2	-0.37874418
204	0xbed5126f	-0.41615626
205	0x3e895c26	0.26828116
206	0xbd34c33e	-0.04413151
207	0x3eab2405	0.33425918
208	0x3e0acf52	0.13555649
209	0xbed32cd5	-0.41245142
210	0x3ea28a76	0.31746262
211	0xbea1795c	-0.31537902
212	0xbe0388f7	-0.12845217
213	0xbe7e2a3b	-0.24820797
214	0x3dce6880	0.100785255
215	0x3d3ae1ec	0.045625612
216	0xbcb8ec21	-0.022573533
217	0xbeeee56e	-0.46659416
218	0x3e9708c5	0.29498878
219	0xbf2bb011	-0.6706553
220	0xbe9c2108	-0.3049395
221	0xbdb3e88b	-0.087845884
222	0xbd3bd6d6	-0.04585918
223	0xbe32e665	-0.17470701
224	0xbf0d58c4	-0.5521357
225	0x3da3123f	0.079624645
226	0xbecfbdb1	-0.4057441
227	0xbe20facf	-0.15720676
228	0xbe5564d9	-0.20839252
229	0xbd1cd168	-0.038285643
230	0x3db0266b	0.08601078
231	0x3e9f6609	0.31132534
232	0x3d9a8f0c	0.07546815
233	0x3c017ab0	0.007902786
234	0x3f120ed6	0.5705389
235	0xbf1969af	-0.59926885
236	0xbea47ff8	-0.32128882
237	0xbe548881	-0.20755197
238	0xbbb27e0e	-0.005447156
239	0xbdc76b94	-0.09737316
240	0x3dc038d9	0.09385843
241	0xbe763038	-0.24041831
242	0x3dbd97e9	0.0925749
243	0xbe594128	-0.21216261
244	0x3bb3c3c9	0.005485986
245	0xbf0fe50e	-0.56208885
246	0xbdba1e3a	-0.090877965
247	0xbf0a3840	-0.5399208
248	0x3cdf629e	0.027268704
249	0xbd053497	-0.032520857
250	0xbe92fca2	-0.2870837
251	0x3cddee4e	0.027091172
252	0x3f720335	0.94536144
253	0xbda86d26	-0.082239434
254	0xbe80c28a	-0.25148422
255	0xbe662783	-0.2247601

fc1.bias f4 [128]
0	0xbe5fcfe2	-0.21856645
1	0xbe952697	-0.29131004
2	0xbe2fd921	-0.17172672
3	0xbdcdb13f	-0.10043573
4	0xbddce37b	-0.10785576
5	0x3d5a13c5	0.05324151
6	0x3eab5636	0.3346421
7	0x3e1fa351	0.15589644
8	0xbe235dd8	-0.15953767
9	0x3d3dc747	0.046332624
10	0x3e334386	0.17506227
11	0x3e47f042	0.19525245
12	0xbdf4f55f	-0.11960863
13	0xbe2a0dfc	-0.16606897
14	0xbeab2aaa	-0.33430988
15	0x3e91eac5	0.28499427
16	0x3b96613c	0.004589228
17	0x3e6689bb	0.22513478
18	0xbe3348d6	-0.17508253
19	0xbd55f07d	-0.0522313
20	0x3c86c8c7	0.01645316
21	0xbd2afd29	-0.04174534
22	0x3ceaabad	0.028646315
23	0xbc8fd6af	-0.017558424
24	0xbd772214	-0.060335234
25	0x3e2857df	0.1643977
26	0xbe18ed4e	-0.14934275
27	0xbe939a7a	-0.28828794
28	0x3e519676	0.20467553
29	0x3dd17510	0.10227406
30	0xbf413df5	-0.75485164
31	0x3e5d81b3	0.21631508
32	0x3e5422cd	0.207164
33	0x3eee5267	0.46547243
34	0x3e5c963e	0.21541688
35	0x3e88151d	0.26578608
36	0x3d971d1d	0.073786
37	0x3dfd9b83	0.12383177
38	0x3debce5c	0.11513969
39	0x3df8c842	0.12147571
40	0xbe2a3a17	-0.16623722
41	0xbdbc4b7b	-0.09194084
42	0x3ced32b8	0.028954849
43	0xbdbed13b	-0.09317251
44	0x3ec0a74c	0.37627637
45	0x3e266c39	0.16252221
46	0x3e93e833	0.2888809
47	0x3bf9e84b	0.0076265684
48	0x3ef23271	0.4730411
49	0xbea10e2b	-0.31456122
50	0x3e88e930	0.26740408
51	0x3df02ddd	0.11727498
52	0xbe825799	-0.25457457
53	0x3c8c32cf	0.017114071
54	0x3e69d870	0.2283647
55	0xbe0d6def	-0.13811468
56	0x3e6e78a6	0.23288211
57	0xbea59cb1	-0.3234611
58	0x3db16dbc	0.08663508
59	0x3c3b583a	0.011434609
60	0x3db9a368	0.090643704
61	0x3dd84b26	0.105612084
62	0x3ce10651	0.027468832
63	0xbdde8660	-0.10865474
64	0x3dfa4589	0.12220294
65	0xbdffac9d	-0.12484095
66	0x3db43806	0.08799748
67	0x3ece9889	0.4035075
68	0xbda2d854	-0.079514176
69	0x3e13b4f6	0.144245
70	0x3dd1bacc	0.10240707
71	0xbca36914	-0.019947566
72	0x3e8b93e6	0.27261275
73	0xbe37e816	-0.17959628
74	0x3c32f047	0.010921544
75	0x3cf55212	0.02994636
76	0xbd40878e	-0.047004275
77	0x3db8481a	0.08998127
78	0x3e2deb21	0.16984226
79	0x3dfc6167	0.123232655
80	0xbb4a809a	-0.0030899406
81	0x3e422b02	0.18961719
82	0xbf36893a	-0.7130314
83	0xbd189f89	-0.03726152
84	0x3e88e9a5	0.26740757
85	0x3ab659ad	0.0013912224
86	0x3bf06ea7	0.0073374095
87	0xbe10a32c	-0.14124745
88	0xbe844ae6	-0.25838393
89	0xbe016257	-0.1263517
90	0xbeac2557	-0.33622238
91	0xbadbd905	-0.0016773051
92	0xbe0754e0	-0.13215971
93	0xbe6b5342	-0.22980979
94	0xbe73d476	-0.23811516
95	0x3b76fd21	0.0037687498
96	0x39c0061d	0.00036625648
97	0xbe7892c0	-0.2427473
98	0xbe64e725	-0.223538
99	0xbda606bb	-0.081067525
100	0xbea2a1d0	-0.31764078
101	0xbd6d553e	-0.05794262
102	0x3d5da9c4	0.05411698
103	0xbe7c6286	-0.24646959
104	0x3e2a88b9	0.16653718
105	0xbe87d01e	-0.26525968
106	0xbe47532b	-0.1946532
107	0x3e501c1e	0.20323226
108	0xbd54fd0c	-0.051999137
109	0x3e66479b	0.22488253
110	0xbebc0eec	-0.36730134
111	0x3d9a8c2b	0.07546266
112	0xbdd5b89d	-0.10435603
113	0xbe224f96	-0.15850672
114	0x3e879dfa	0.26487714
115	0xbf07aef8	-0.53001356
116	0x3c8e4a3d	0.017369384
117	0x3d33197c	0.043725476
118	0xbecd9996	-0.4015624
119	0xbea584f4	-0.32327998
120	0x3e5b1cad	0.21397658
121	0xbe9f5001	-0.31115726
122	0x3e8419c5	0.2580091
123	0xbdf0b1aa	-0.11752637
124	0x3d7820f4	0.0605783
125	0xbe302ae4	-0.17203861
126	0x3e04468a	0.12917534
127	0xbeb9047e	-0.3613624

fc2.weight f4 [64, 128]
0	0xbe34d6f1	-0.17660119
1	0x3e1f0177	0.15527903
2	0x3e2cb36a	0.16865316
3	0x3ca713cf	0.020395188
4	0x3c3e945b	0.01163205
5	0x3df095a5	0.117472924
6	0xbc15843c	-0.009125765
7	0x3e0d1343	0.13776879
8	0x3dfac4c6	0.12244563
9	0xbbe705de	-0.00705026
10	0x3e023646	0.12716016
11	0x3eb97033	0.36218414
12	0xbe8d055b	-0.27543148
13	0x3e26d6de	0.16292903
14	0xbef86a89	-0.4851878
15	0x3d931902	0.07182504
16	0x3b7adda3	0.0038279078
17	0x3dc911bf	0.09817838
18	0x3e294c66	0.1653305
19	0x3dd5b27a	0.10434432
20	0x3bb464e5	0.0055051916
21	0x3e14324a	0.14472309
22	0x3e209dfe	0.15685269
23	0xbd3f7235	-0.046739776
24	0xbdefc2ca	-0.11707075
25	0x3d705a4d	0.058679868
26	0x3da71c1a	0.08159657
27	0x3e7cfa2e	0.24704811
28	0x3ce6cc20	0.028173506
29	0x3da6e9f3	0.08150091
30	0xbeff3675	-0.49846235
31	0xbe508e8b	-0.20366876
32	0x3ad6e62e	0.0016395503
33	0xbe4944ad	-0.19655104
34	0x3e066cb8	0.1312741
35	0xbed3e5f7	-0.41386387
36	0x3ebb8f57	0.36632797
37	0xbe830b81	-0.25594714
38	0x3e962d57	0.29331467
39	0xbe4e2fdc	-0.20135444
40	0x3e784c84	0.24247938
41	0x3e23d2f2	0.15998438
42	0x3c598748	0.0132768825
43	0xbed1b01c	-0.40954673
44	0xbe5bb597	-0.2145599
45	0x3d3c2368	0.045932204
46	0x3e7e8168	0.24854052
47	0x3d1659fa	0.036706902
48	0xbdd83d5b	-0.105585776
49	0x3d1fc853	0.039009403
50	0x3d0c59ce	0.034265332
51	0x3d8d5045	0.06900076
52	0x3e514d59	0.20439662
53	0x3e630a5a	0.22171918
54	0x3cf0c47b	0.029390564
55	0x3d037fe5	0.03210439
56	0xbda04313	-0.078252934
57	0x3ec900fb	0.3925856
58	0x3d947cfc	0.072504014
59	0xbed45dca	-0.41477805
60	0xbdf61eef	-0.12017619
61	0xbf13ef35	-0.57786876
62	0xbe2d024f	-0.16895412
63	0x3e1eb7e7	0.1549984
64	0x3c8134dc	0.015772276
65	0x3d8c2d6c	0.06844601
66	0x3e15003e	0.14550874
67	0x3d47040b	0.04858784
68	0xbe404f4e	-0.18780252
69	0x3d67808c	0.056519076
70	0xbefacc76	-0.48984116
71	0x3c7a64b2	0.015282797
72	0xbc8cf9a6	-0.017208885
73	0x3dc4dacf	0.09612047
74	0xbe4bad5e	-0.19890353
75	0x3e16cfc0	0.14727688
76	0x3d44d51c	0.0480548
77	0x3de193c4	0.11014512
78	0x3e13342a	0.14375368
79	0x3de03220	0.109470606
80	0xbf0772a5	-0.5290931
81	0x3d1073ad	0.035266567
82	0xbf2e34ad	-0.68049127
83	0xbe8679e2	-0.26264864
84	0xbe05b3a3	-0.13056807
85	0x3e8df3dd	0.27725115
86	0x3e3c121f	0.18366288
87	0x3e4c217d	0.1993465
88	0xbcc11c02	-0.023572925
89	0xbe12306a	-0.14276281
90	0x3e511be5	0.20420797
91	0xbf10d12e	-0.5656918
92	0xbdf7776b	-0.12083324
93	0x3c22f781	0.009946705
94	0xbecaf7c9	-0.3964217
95	0xbe879543	-0.26481065
96	0xba3b5152	-0.00071456016
97	0x3d07d712	0.03316409
98	0x3eea87dc	0.45806777
99	0x3e65f3e5	0.2245632
100	0x3de8d014	0.11367813
101	0xbd9ac2a8	-0.07556659
102	0xbee5e7b5	-0.4490334
103	0x3e9ff911	0.3124471
104	0xbe73acf0	-0.23796439
105	0x3e3b7241	0.18305303
106	0x3e92ef6b	0.28698286
107	0x3ec3ad58	0.38218188
108	0x3ed67a98	0.41890407
109	0x3dddf199	0.10837097
110	0x3e3862ff	0.18006514
111	0xbcd46cf2	-0.025930855
112	0x3d1f7b4e	0.038935952
113	0xbcc714bb	-0.024301877
114	0x3dc47197	0.09591978
115	0xbf0ef8d9	-0.5584846
116	0x3e50824b	0.20362203
117	0x3e256123	0.16150336
118	0xbd698671	-0.05701298
119	0x3e724bc9	0.23661722
120	0x3dbfbe71	0.09362496
121	0x3e596688	0.21230519
122	0xbc04e917	-0.008112214
123	0xbd6d09d4	-0.0578707
124	0xbe72cb8b	-0.23710458
125	0x3dacf6f1	0.08445538
126	0xbe07267b	-0.13198273
127	0x3e7ea427	0.24867307
128	0xbc84cceb	-0.016210994
129	0x3e91d1bd	0.2848033
130	0x3e0ca1bd	0.13733573
131	0x3de46d16	0.11153619
132	0x3e3297ee	0.17440769
133	0x3d835ada	0.06413813
134	0x3d6f5624	0.05843176
135	0x3e3d7a29	0.18503632
136	0x3ea27adb	0.31734356
137	0xbd8cf712	-0.068830624
138	0x3e45d5e7	0.19319879
139	0x3ecff204	0.4061433
140	0xbeaec8b0	-0.34137487
141	0x3e81b42c	0.25332773
142	0xbea1cbe8	-0.3160088
143	0x3e0d877c	0.13821214
144	0x3e279fa0	0.16369486
145	0x3e28574e	0.16439554
146	0x3e4fb696	0.20284495
147	0x3c82d709	0.015971677
148	0x3ccfe956	0.025379818
149	0x3d94dd2c	0.07268748
150	0x3e6ff1a9	0.2343203
151	0x3e00a73d	0.12563796
152	0x3ce21036	0.02759562
153	0x3e2b07df	0.16702221
154	0x3e465415	0.19368012
155	0x3e021d35	0.12706454
156	0x3e20d69e	0.1570687
157	0x3e450b19	0.19242515
158	0xbedd3074	-0.4320103
159	0xbe0c393b	-0.13693707
160	0x3e2fe643	0.17177682
161	0xbe0d9b6b	-0.13828819
162	0x3e6832a6	0.22675571
163	0xbe885420	-0.26626682
164	0x3da4daad	0.080495216
165	0xbd4b1869	-0.049583826
166	0x3eb7815f	0.3584089
167	0x3d49d8e8	0.049279124
168	0x3e9e956e	0.3097338
169	0x3d952ef6	0.07284348
170	0x3e59abc5	0.21256931
171	0xbe2e9dbc	-0.17052358
172	0xbe2aea47	-0.16690932
173	0x3e7094ae	0.23494217
174	0x3ea8574e	0.32879108
175	0x3de21b8e	0.11040412
176	0xbd2acf99	-0.041701887
177	0xbde06257	-0.10956257
178	0x3c508e3e	0.012729226
179	0x3e0d60e3	0.1380649
180	0x3ece229d	0.40260783
181	0x3e6b9e87	0.23009692
182	0xbce6a487	-0.028154625
183	0x3dea7ac8	0.114492
184	0x3d8bfe27	0.06835585
185	0x3f12962b	0.5726039
186	0x3e172c85	0.14763077
187	0xbe8f3283	-0.27968225
188	0x3d837e6d	0.06420598
189	0xbdf2bd94	-0.118525654
190	0xbdadac4e	-0.0848013
191	0x3efeca54	0.4976374
192	0x3d8baae4	0.06819704
193	0x3db4220f	0.08795559
194	0x3e5c68ae	0.21524307
195	0xbdb65e66	-0.08904724
196	0xbcbf794b	-0.023373267
197	0x3e4e9a47	0.2017604
198	0xbe8ce788	-0.27520394
199	0x3e3afae6	0.18259773
200	0x3e3069b6	0.17227826
201	0x3e2ccae6	0.16874275
202	0x3d7a22a3	0.06106819
203	0x3ecbbe61	0.39793685
204	0xb9a669ff	-0.0003174096
205	0x3d46e384	0.04855682
206	0x3e1db105	0.15399559
207	0x3e384317	0.17994343
208	0xbee6a582	-0.45048147
209	0xba4a6bc8	-0.0007721749
210	0xbf37c426	-0.71783674
211	0xbeeca3a7	-0.46218607
212	0xbe0f260e	-0.1397936
213	0x3e9d92e2	0.30776125
214	0x3dd8ef10	0.105924726
215	0x3ec198be	0.37811846
216	0xbc982069	-0.018570142
217	0x3e1a13dd	0.1504664
218	0x3dd3af41	0.103361614
219	0xbec3cfce	-0.3824448
220	0x3cecb48e	0.028894689
221	0x3e0c5724	0.13705117
222	0xbe2fb329	-0.17158188
223	0xbbf98d77	-0.007615741
224	0xbe62a069	-0.22131504
225	0xbc378ed0	-0.011203483
226	0x3ecdae0b	0.40171847
227	0x3e668a01	0.22513582
228	0x3e3c13f3	0.18366985
229	0xbcd0a4f4	-0.02546928
230	0xbed4912a	-0.41517
231	0x3e6aa4a0	0.22914362
232	0x3e0077be	0.12545678
233	0x3e929f28	0.28637052
234	0x3ee6787f	0.45013806
235	0x3e0befeb	0.1366574
236	0x3e8c5b87	0.2741358
237	0x3e3fff0b	0.18749635
238	0x3e7c4f37	0.24639593
239	0x3e42bf83	0.19018368
240	0x3e89c647	0.26909086
241	0x3def9cda	0.11699839
242	0x3e399946	0.18124875
243	0xbeebcebb	-0.4605616
244	0x3e1f67ab	0.1556689
245	0x3d935207	0.0719338
246	0x3e88551c	0.26627433
247	0x3e707f08	0.23485959
248	0x3e2c4963	0.1682487
249	0x3e88fbf3	0.26754722
250	0x3ddf6990	0.10908806
251	0x3e2ba7fe	0.16763303
252	0x3ca9b4b1	0.020716043
253	0xbceb8a84	-0.028752573
254	0x3d414f46	0.04719474
255	0x3f0409a0	0.51577187

fc2.bias f4 [64]
0	0x3e263526	0.16231212
1	0x3db1df8e	0.08685218
2	0xbbe634cc	-0.007025337
3	0x3d49314a	0.04911927
4	0x3dedcdef	0.11611544
5	0xbcb0b03c	-0.02156841
6	0xbda06103	-0.078310035
7	0xbd4c4f66	-0.049880408
8	0x3e0c7b9d	0.1371903
9	0x3e0ece53	0.13945894
10	0x3e1df907	0.15427028
11	0x3dcce767	0.10005074
12	0x3ed53ef7	0.416496
13	0xbd355345	-0.044268865
14	0xbe8d04b7	-0.2754266
15	0x3e836e08	0.25669885
16	0x3cbbed27	0.022940231
17	0xbe704a0a	-0.23465744
18	0x3f0450e9	0.5168596
19	0x3e403085	0.18768509
20	0x3d08b1cc	0.033372685
21	0x3e863bb7	0.26217434
22	0xbc94e99b	-0.018177798
23	0xbd8c9519	-0.068643756
24	0xbe7f3526	-0.24922618
25	0x3e51d5d0	0.20491719
26	0x3e03d129	0.12872757
27	0x3dec308c	0.11532697
28	0xbe18b215	-0.14911683
29	0x3e0cabc9	0.13737406
30	0xbe460f93	-0.19341879
31	0x3c9a636e	0.01884624
32	0x3d809b81	0.0627966
33	0xbe2bb619	-0.16768683
34	0xbe2fa708	-0.17153561
35	0x3d51869a	0.051153757
36	0xbe79e9cb	-0.24405591
37	0xbdf0c407	-0.11756139
38	0x3e0fb15b	0.140325
39	0xbd1f3038	-0.038864344
40	0xbce86780	-0.028369665
41	0xbd62e030	-0.055389583
42	0x3dcf34ab	0.101174675
43	0x3db78258	0.08960408
44	0x3b7f278a	0.003893348
45	0xbcb9c7cb	-0.022678277
46	0x3d56ac74	0.052410558
47	0x3d94ef38	0.0727219
48	0x3e832c6c	0.2561983
49	0x3d075520	0.033040166
50	0x3dacacae	0.084313735
51	0x3d77fc03	0.06054307
52	0x3e00bb27	0.12571393
53	0x3c2c3fbc	0.010513242
54	0xbd00fb4f	-0.031489667
55	0x3d83cb28	0.06435233
56	0x3e7dc000	0.24780273
57	0xbe4a3c8e	-0.19749662
58	0x3e5c5b2e	0.21519157
59	0x3df88880	0.1213541
60	0xbe2b1ba5	-0.16709764
61	0xbd1ae2c4	-0.037813917
62	0xbd513275	-0.05107351
63	0x3d8e434b	0.06946429

fc3.weight f4 [32, 64]
0	0x3ef9842a	0.48733646
1	0x3e91fe52	0.28514344
2	0xbf003f7a	-0.5009686
3	0x3ecbcb37	0.39803478
4	0xbf1590ec	-0.5842426
5	0x3e7ca8c2	0.24673751
6	0x3e4185d9	0.18898715
7	0xbd07a62c	-0.03311746
8	0x3db1e3ba	0.086860135
9	0xbedb3925	-0.42817035
10	0x3db4fb73	0.08837023
11	0x3f102b28	0.5631585
12	0x3e613496	0.21992716
13	0x3e60cb98	0.21952665
14	0x3e9c3fcb	0.3051742
15	0x3eda0a4e	0.42585987
16	0x3e53a141	0.20666982
17	0x3f203869	0.62586075
18	0x3e89f3f8	0.26943946
19	0xbf0f62f0	-0.5601034
20	0xbdc43600	-0.09580612
21	0x3e4fc632	0.2029045
22	0x3dc26480	0.09491825
23	0xbd689775	-0.056785066
24	0x3f4ee141	0.8081246
25	0x3e7fc20a	0.24976364
26	0xbf0add0d	-0.54243547
27	0xbf3ad877	-0.7298655
28	0x3eb10259	0.34572104
29	0xbe67f9da	-0.22653905
30	0x3f0110bd	0.50416166
31	0x3e802d38	0.250345
32	0x3e79dc09	0.24400343
33	0x3e6c3ff7	0.23071276
34	0x3eaaf28b	0.3338817
35	0x3e8e1dc3	0.2775708
36	0x3e3139a1	0.1730714
37	0xbd66e3ce	-0.056369595
38	0x3e1e70cc	0.15472716
39	0x3cc2b5d8	0.02376835
40	0xbf754d52	-0.95821106
41	0xbf136949	-0.5758253
42	0xbf12ac52	-0.5729419
43	0x3ed4f8f4	0.41596186
44	0xbedbee71	-0.42955354
45	0xbb5bc4e6	-0.0033534109
46	0x3d49a4cd	0.049229432
47	0x3ec4736e	0.38369316
48	0x3ca7072e	0.020389166
49	0xbcebbe2b	-0.028777203
50	0x3eb1d9e9	0.34736565
51	0xbe92509e	-0.2857713
52	0xbcb029b6	-0.021504264
53	0xbf98ac0b	-1.1927503
54	0xbdc8f9bb	-0.09813257
55	0x3d6c016e	0.05761855
56	0x3dfb0ec1	0.122586735
57	0x3f1a8f60	0.6037502
58	0x3e90d9ab	0.28291067
59	0x3e779690	0.24178529
60	0x3e5200d2	0.20508125
61	0x3e942de9	0.28941277
62	0x3dd2d539	0.10294575
63	0x3ee0628c	0.43825185
64	0x3e9cb565	0.30607143
65	0x3e474dd8	0.19463289
66	0xbe6d6a1a	-0.23185006
67	0x3e6641de	0.22486064
68	0xbeaaa369	-0.33327797
69	0x3ece95f9	0.40348795
70	0x3e25640f	0.1615145
71	0xbcfdd639	-0.030985938
72	0xbe0fc6da	-0.140407
73	0xbee8373e	-0.45354646
74	0x3e6a4d38	0.22881019
75	0x3f467be6	0.77532804
76	0xbdf2d560	-0.11857104
77	0xbbee10e1	-0.0072651957
78	0x3d8c0689	0.06837184
79	0x3f08d537	0.5345034
80	0x3e8f0a47	0.27937528
81	0x3e97c39d	0.2964143
82	0x3d3922e2	0.045199282
83	0xbecc54b7	-0.39908382
84	0xbcbce82c	-0.023059927
85	0x3e554ee0	0.2083087
86	0x3d83363f	0.06406831
87	0xbd6f38c9	-0.058403764
88	0x3f104df4	0.5636895
89	0x3e1cb92f	0.15305017
90	0xbe8dd341	-0.27700236
91	0xbe9d83d3	-0.30764636
92	0x3ea6c404	0.32571423
93	0xbe4048ab	-0.1877772
94	0x3eca122b	0.39466986
95	0x3e2addb3	0.16686134
96	0x3dab47b2	0.08363284
97	0x3e8fd2ca	0.28090507
98	0x3e8f2842	0.27960402
99	0x3e61bd50	0.22044873
100	0x3e95ad73	0.29233894
101	0x3cebcef6	0.02878521
102	0xbc8cb9e8	-0.01717849
103	0x3d9d58ea	0.07682975
104	0xbf5e8622	-0.8692342
105	0xbebdc3e7	-0.37063524
106	0xbdfc4f5d	-0.12319825
107	0x3e955eba	0.29173833
108	0xbe392896	-0.18081889
109	0xbc5923f4	-0.013253201
110	0xbdafe12e	-0.085878715
111	0x3e43ecb5	0.19133265
112	0x3b9f0bf5	0.0048537203
113	0x3c000718	0.007814191
114	0x3e912ac4	0.2835294
115	0xbd69a583	-0.05704261
116	0x3cb3b0f3	0.021934962
117	0xbf15bb44	-0.5848887
118	0x3d30ff7f	0.04321241
119	0xbca22d19	-0.019796895
120	0x3e67cbeb	0.22636382
121	0x3ed0ce7f	0.40782544
122	0x3e6a651f	0.22890137
123	0x3e4f9745	0.20272548
124	0x3eb3da4a	0.3512748
125	0x3e8b7d7a	0.2724417
126	0x3da4d0a9	0.08047611
127	0x3e83afa7	0.2571995
128	0x3e07cbd7	0.13261352
129	0x3d11b907	0.035576846
130	0xbe746039	-0.23864831
131	0x3d46aacb	0.048502725
132	0xbe286cba	-0.16447726
133	0xbc27ef3d	-0.01024991
134	0x3c7f557d	0.015584347
135	0x3de4e11a	0.11175747
136	0x3f164264	0.58695054
137	0x3dddef01	0.10836602
138	0x3ddb4c7e	0.10707949
139	0x3e3f7a08	0.18698895
140	0x3dc08233	0.093998335
141	0x3e032454	0.12806827
142	0x3e352108	0.17688382
143	0x3f350701	0.7071381
144	0xbc860ad4	-0.016362585
145	0x3eb94369	0.36184242
146	0x3d34d31a	0.044146635
147	0xbe8fb4b2	-0.28067547
148	0x3c76b58a	0.015057931
149	0x3c6404a1	0.013917119
150	0x3dd9c37a	0.10632987
151	0x3da99bf4	0.08281699
152	0x3ed595f6	0.41715974
153	0x3e1e978c	0.15487498
154	0x3e42abae	0.19010803
155	0xbed0e22a	-0.4079755
156	0x3dc0a920	0.09407258
157	0x3e74f1ef	0.23920415
158	0x3d93c8cc	0.07216033
159	0x3e7fc4d4	0.24977428
160	0x3df7f9a8	0.12108165
161	0x3c7df2a7	0.015499747
162	0xbdb28ea3	-0.08718612
163	0x3e640f66	0.22271499
164	0x3e1894fd	0.14900585
165	0xbe0756ce	-0.13216707
166	0xbdb9d8ae	-0.090745315
167	0x3c9bbff8	0.019012436
168	0xbf714fc4	-0.9426234
169	0x3ed1f951	0.41010526
170	0xbe986fcb	-0.2977279
171	0x3d98332f	0.074316375
172	0xbea3f55a	-0.32023126
173	0x3ddc5a1c	0.107593745
174	0x3db00173	0.085940264
175	0x3df7fb24	0.12108448
176	0x3f2c47ed	0.6729725
177	0xbce810bf	-0.028328298
178	0x3e8a36fb	0.26995072
179	0x3bbb5095	0.0057163932
180	0x3d7f623e	0.06234955
181	0xbe1f1190	-0.15534043
182	0xbd8d31d1	-0.06894267
183	0xbc07e6bd	-0.008294758
184	0x3d99e6a0	0.07514691
185	0x3d8bbd06	0.06823163
186	0x3d4190eb	0.047257345
187	0xbd9b2fe1	-0.075774916
188	0xbd92cd79	-0.07168097
189	0x3da97cbb	0.082757436
190	0x3d2a26ee	0.041541032
191	0x3e7e3a53	0.24826936
192	0x3ee82909	0.45343807
193	0x3e2f09e2	0.17093614
194	0xbea2ce6f	-0.3179812
195	0x3ede2198	0.43385005
196	0xbed0ceb0	-0.4078269
197	0x3eb68935	0.35651556
198	0x3e9c8c7d	0.30575934
199	0xbd80cf12	-0.062894955
200	0xbda4f93c	-0.0805535
201	0xbf233aaa	-0.6376139
202	0x3e13e859	0.14444102
203	0x3f2097e1	0.6273175
204	0x3d92bffe	0.07165526
205	0x3dce0dca	0.10061224
206	0x3eb1cdf6	0.34727448
207	0x3ed26573	0.41093025
208	0x3e5a9e95	0.21349557
209	0x3ee1a40c	0.4407047
210	0x3dc4719b	0.09591981
211	0xbe898fcb	-0.26867518
212	0xbe008f2f	-0.1255462
213	0x3e8a961a	0.27067643
214	0x3d7501f3	0.059816312
215	0xbd8058b5	-0.062669195
216	0x3f35e93b	0.71059006
217	0x3d0fa781	0.035071854
218	0xbf05533a	-0.5208012
219	0xbefa19e2	-0.48847872
220	0x3ea8ec9a	0.32993013
221	0xbeaf36fc	-0.34221637
222	0x3ef47ef5	0.4775311
223	0x3e9ffd7f	0.3124809
224	0x3e35c6f3	0.17751674
225	0x3ebe9897	0.37225792
226	0x3eafa302	0.34304053
227	0x3e137e33	0.1440361
228	0x3ecb045e	0.3965177
229	0xbd7118b5	-0.058861453
230	0x3e2193f3	0.15779094
231	0xbd856e76	-0.065152094
232	0xbf572757	-0.840444
233	0xbf240715	-0.64073306
234	0xbe196b2d	-0.1498229
235	0x3e91b38e	0.28457302
236	0xbdd7098b	-0.10499867
237	0x3df2e2df	0.118596785
238	0x3cfb702b	0.030693134
239	0x3ea4c42c	0.32180917
240	0x3e185584	0.14876372
241	0xbdff9967	-0.12480431
242	0x3ed17f17	0.40917274
243	0xbe8c4109	-0.27393368
244	0x3e5015f3	0.20320873
245	0xbf0eb439	-0.5574375
246	0xbd8b41f3	-0.06799688
247	0xbc854f95	-0.0162733
248	0x3dfe98d2	0.12431492
249	0x3f0b820a	0.544953
250	0x3e8a6326	0.2702877
251	0x3e8fe819	0.28106764
252	0x3eaa8a5a	0.3330868
253	0x3ec5660d	0.3855442
254	0xbdf8fcd6	-0.121576
255	0x3ec96082	0.39331442

fc3.bias f4 [32]
0	0x3ddcfdc1	0.10790587
1	0x3e685a03	0.22690587
2	0xbbe860b2	-0.007091605
3	0x3e439edc	0.19103569
4	0xbddc796c	-0.10765347
5	0x3cf56e49	0.029959815
6	0x3dd5eabd	0.104451634
7	0x3e9cbeb0	0.30614233
8	0x3e34cc94	0.17656165
9	0x3e1ce69d	0.15322347
10	0x3dd1e704	0.10249141
11	0x3c0e3bd9	0.008681261
12	0x3daac6d0	0.08338702
13	0x3eee93ed	0.46597233
14	0xbdefccd9	-0.117089935
15	0x3d512d6c	0.05106871
16	0x3eccf3f8	0.40029883
17	0x3e4e4550	0.20143628
18	0xbcc11e73	-0.02357409
19	0x3db91da3	0.09038856
20	0x3ef4d42f	0.47818133
21	0x3e8c1f17	0.2736747
22	0xbe191173	-0.14948063
23	0x3e1bc59c	0.152121
24	0xbcf7c53d	-0.030245418
25	0x3d526623	0.051366936
26	0x3e2cf17c	0.16888994
27	0xbd9ad108	-0.07559401
28	0x3daa6182	0.083193794
29	0x3de67a97	0.11253851
30	0xbca50ec1	-0.020148637
31	0xbdec62ed	-0.11542306

fc4.weight f4 [4, 32]
0	0xbec517ba	-0.38494664
1	0xbe226b45	-0.15861233
2	0xbde35b58	-0.11101407
3	0xbe983aba	-0.29732305
4	0x3ddebcb6	0.108758375
5	0xbc7705bb	-0.01507705
6	0xbe80ba11	-0.25141957
7	0xbecbd1f2	-0.39808613
8	0xbec6e5b2	-0.3884712
9	0xbe5c1a6d	-0.21494456
10	0x3e2cd5db	0.16878454
11	0xbe55d0fd	-0.20880504
12	0xbe7ef9e7	-0.24900018
13	0x3f893b7a	1.0721276
14	0x3e2efbf9	0.17088307
15	0xbe93514d	-0.28772965
16	0x3eb40236	0.35157937
17	0xbe52b24a	-0.20575824
18	0x3e2576dc	0.16158623
19	0x3f42aca5	0.76044685
20	0x3f43c6ae	0.76475036
21	0xbe4479e4	-0.19187123
22	0x3e5e11ca	0.21686473
23	0xbe976ded	-0.29576054
24	0xbde8e5a6	-0.11371927
25	0xbdfa8045	-0.12231497
26	0xbf39a459	-0.725164
27	0xbdd7c556	-0.10535686
28	0xbe6b6197	-0.22986446
29	0xbed26c2c	-0.41098154
30	0x3ef7a1d7	0.48365662
31	0xbddd3b90	-0.10802376
32	0xbe8ad991	-0.27119115
33	0xbeb81463	-0.35953054
34	0x3c721a37	0.014776758
35	0xbe971051	-0.29504636
36	0x3cbafd68	0.022825912
37	0xbde702ba	-0.11279817
38	0x3dd0b333	0.101904295
39	0xbeb780d7	-0.35840484
40	0xbed277ee	-0.41107124
41	0xbedd6775	-0.43242994
42	0x3e1e9b4c	0.15488929
43	0x3ba0ad24	0.0049034525
44	0xbeb33439	-0.3500078
45	0x3f6c6dcd	0.9235504
46	0x3eb3fa0b	0.35151705
47	0xbd5ec580	-0.05438757
48	0x3f395b8a	0.724053
49	0xbe8c65a1	-0.27421287
50	0xbc7c426b	-0.015396695
51	0x3f2b186a	0.6683413
52	0x3ec276eb	0.37981352
53	0xbeb70c82	-0.3575173
54	0x3a4a8bc4	0.0007726515
55	0x3cf636fd	0.030055517
56	0x3ccaf413	0.024774587
57	0xbe884c41	-0.26620677
58	0xbf0bf28f	-0.5466699
59	0x3dabc349	0.08386857
60	0xbe97213e	-0.2951755
61	0xbe9ce76a	-0.30645305
62	0x3f561afa	0.8363491
63	0x3dc54a2e	0.09633289
64	0xbe5415d2	-0.20711449
65	0xbe4a8b1e	-0.19779631
66	0xbea8233c	-0.32839382
67	0xbe79d3b5	-0.24397166
68	0xbdbcc6d0	-0.09217608
69	0x3d949a15	0.07255951
70	0x3eb04492	0.34427315
71	0xbe160d4a	-0.14653507
72	0xbeab7a40	-0.33491707
73	0xbe81411e	-0.25244993
74	0xbc945a58	-0.018109486
75	0xbede163a	-0.43376333
76	0xbe8b383c	-0.2719134
77	0x3f6c67b3	0.9234573
78	0xbd402636	-0.04691144
79	0xbf01e616	-0.5074171
80	0x3f6e386a	0.9305483
81	0xbeb93671	-0.36174348
82	0x3d79a695	0.06094988
83	0x3ea002a0	0.31252003
84	0x3f627ba7	0.8846993
85	0xbe8241f3	-0.2544094
86	0xbf7d735b	-0.99004143
87	0xbc3a7a0c	-0.011381637
88	0xbe948568	-0.2900803
89	0xbeeda454	-0.46414435
90	0xbe0ac53f	-0.13551806
91	0x3d0b6bfb	0.034038525
92	0xbea0a918	-0.31379008
93	0xbe67535f	-0.22590397
94	0x3edaecb2	0.4275871
95	0xbd873cf4	-0.06603423
96	0xbeb1aa27	-0.34700128
97	0xbe865e59	-0.26243857
98	0xbea2015f	-0.3164167
99	0xbe21785e	-0.15768573
100	0xbcbc47c4	-0.02298344
101	0x3d7c8ce0	0.061657786
102	0xbe67b54e	-0.22627756
103	0xbea1dea1	-0.31615165
104	0xbdc98965	-0.09840659
105	0xbe6b1e57	-0.22960792
106	0x3e097b90	0.13426042
107	0xbe8aeb56	-0.27132672
108	0xbee3a42a	-0.44461185
109	0x3f113e12	0.56735337
110	0x3ea2d9a5	0.31806675
111	0xbdda103a	-0.10647626
112	0x3f2e4b23	0.680834
113	0xbed61669	-0.41813973
114	0xbdd26008	-0.10272223
115	0x3f6f0291	0.9336329
116	0x3f7c12c0	0.9846611
117	0xbedf6efc	-0.43639362
118	0x3e8c0ca5	0.27353397
119	0xbed27cdc	-0.41110885
120	0xbecd1f81	-0.40063098
121	0xbdff380e	-0.124618635
122	0xbee53e50	-0.44774103
123	0xbce35788	-0.0277517
124	0xbe94186b	-0.2892488
125	0xbec3283d	-0.38116637
126	0x3dae30a6	0.08505373
127	0x3d8b6c37	0.0680775

fc4.bias f4 [4]
0	0xbbde7aff	-0.0067895646
1	0xbdbc35b3	-0.0918993
2	0x3eb9eaa6	0.36311835
3	0xbe8dea47	-0.27717802
